…
> [0;32m/home/endurance/RDDPG/RL-CollectiveTransport/pytorch/python_code/Agent.py[0m(147)[0;36mchoose_object_intention[0;34m()[0m
[0;32m    146 [0;31m        [0;32mimport[0m [0mipdb[0m[0;34m;[0m [0mipdb[0m[0;34m.[0m[0mset_trace[0m[0;34m([0m[0;34m)[0m[0;34m[0m[0;34m[0m[0m
[0m[0;32m--> 147 [0;31m        [0;32mreturn[0m [0mself[0m[0;34m.[0m[0mchoose_action[0m[0;34m([0m[0mobservation[0m[0;34m,[0m [0mself[0m[0;34m.[0m[0mintention_networks[0m[0;34m,[0m [0mtest[0m[0;34m)[0m[0;34m[0m[0;34m[0m[0m
[0m[0;32m    148 [0;31m[0;34m[0m[0m
[0m
ipdb> {'actor': TD3ActorNetwork(
  (fc1): Linear(in_features=8, out_features=400, bias=True)
  (fc2): Linear(in_features=400, out_features=300, bias=True)
  (mu): Linear(in_features=300, out_features=1, bias=True)
), 'target_actor': TD3ActorNetwork(
  (fc1): Linear(in_features=8, out_features=400, bias=True)
  (fc2): Linear(in_features=400, out_features=300, bias=True)
  (mu): Linear(in_features=300, out_features=1, bias=True)
), 'critic_1': TD3CriticNetwork(
  (fc1): Linear(in_features=9, out_features=400, bias=True)
  (fc2): Linear(in_features=400, out_features=300, bias=True)
  (q1): Linear(in_features=300, out_features=1, bias=True)
), 'target_critic_1': TD3CriticNetwork(
  (fc1): Linear(in_features=9, out_features=400, bias=True)
  (fc2): Linear(in_features=400, out_features=300, bias=True)
  (q1): Linear(in_features=300, out_features=1, bias=True)
), 'critic_2': TD3CriticNetwork(
  (fc1): Linear(in_features=9, out_features=400, bias=True)
  (fc2): Linear(in_features=400, out_features=300, bias=True)
  (q1): Linear(in_features=300, out_features=1, bias=True)
), 'target_critic_2': TD3CriticNetwork(
  (fc1): Linear(in_features=9, out_features=400, bias=True)
  (fc2): Linear(in_features=400, out_features=300, bias=True)
  (q1): Linear(in_features=300, out_features=1, bias=True)
), 'learning_scheme': 'TD3', 'n_actions': 1, 'replay': <python_code.replay_buffer.ReplayBuffer object at 0x7f14d4e845e0>, 'learn_step_counter': 0}
ipdb> --Return--
array([0.1697..., 0.18505302])
> [0;32m/home/endurance/RDDPG/RL-CollectiveTransport/pytorch/python_code/Agent.py[0m(147)[0;36mchoose_object_intention[0;34m()[0m
[0;32m    146 [0;31m        [0;32mimport[0m [0mipdb[0m[0;34m;[0m [0mipdb[0m[0;34m.[0m[0mset_trace[0m[0;34m([0m[0;34m)[0m[0;34m[0m[0;34m[0m[0m
…
[0m[0;32m--> 123 [0;31m            [0mobs_padded[0m [0;34m=[0m [0mself[0m[0;34m.[0m[0mbuild_ee_input[0m[0;34m([0m[0ms[0m[0;34m,[0m[0ma[0m[0;34m,[0m[0ms_[0m[0;34m,[0m[0mr[0m[0;34m)[0m[0;34m[0m[0;34m[0m[0m
[0m[0;32m    124 [0;31m            [0mmp[0m [0;34m=[0m [0mnetworks[0m[0;34m[[0m[0;34m'ee'[0m[0;34m][0m[0;34m([0m[0mobs_padded[0m[0;34m,[0m [0;32mTrue[0m[0;34m)[0m[0;34m[0m[0;34m[0m[0m
[0m
ipdb> self = <python_code.Agent.Agent object at 0x7f829cdeda30>
observation = array([-6.45079851, -2.75816274, -6.45079851, -2.75816274,  0.16943506,
        0.16889729,  0.16983388,  0.1706965 ])
networks = {'actor': DDPGActorNetwork(
  (fc1): Linear(in_features=18, out_features=400, bias=True)
  (fc2): Linear(in_features=400, out_features=300, bias=True)
  (mu): Linear(in_features=300, out_features=1, bias=True)
  (relu): ReLU()
  (tanh): Tanh()
), 'target_actor': DDPGActorNetwork(
  (fc1): Linear(in_features=18, out_features=400, bias=True)
  (fc2): Linear(in_features=400, out_features=300, bias=True)
  (mu): Linear(in_features=300, out_features=1, bias=True)
  (relu): ReLU()
  (tanh): Tanh()
), 'critic': DDPGCriticNetwork(
  (fc1): Linear(in_features=19, out_features=400, bias=True)
  (fc2): Linear(in_features=400, out_features=300, bias=True)
  (q): Linear(in_features=300, out_features=1, bias=True)
  (relu): ReLU()
), 'target_critic': DDPGCriticNetwork(
  (fc1): Linear(in_features=19, out_features=400, bias=True)
  (fc2): Linear(in_features=400, out_features=300, bias=True)
  (q): Linear(in_features=300, out_features=1, bias=True)
  (relu): ReLU()
), 'ee': EnvironmentEncoder(
  (ee): LSTM(8, 1, batch_first=True)
  (meta_layer): Linear(in_features=1, out_features=1, bias=True)
), 'learning_scheme': 'RDDPG', 'n_actions': 1, 'replay': <python_code.replay_buffer.SequenceReplayBuffer object at 0x7f829cddaf70>, 'learn_step_counter': 0}
ipdb> Server Started
PARAMETERS:
  num_robots ---- 4
  num_obstacles - 2
  num_obs ------- 31
  alphabet_size - 1
  num_actions --- 3
  num_stats ----- 2
> [0;32m/home/endurance/RDDPG/RL-CollectiveTransport/pytorch/python_code/LearningAids.py[0m(121)[0;36mDDPG_choose_action[0;34m()[0m
…
